memory_optimized_hybrid_model.pth (torch, 39928 bytes, 10 tensors)

lstm.weight_ih_l0 f4 [128, 4]
-0.17276393 -0.1428104 -0.21517478 0.012024508 -0.14356853 0.08520346 -0.018612513 -0.034865376
0.004319886 -0.030364377 -0.08628993 0.026442988 -0.03323558 -0.07326406 -0.10037671 -0.086402945
-0.109545544 0.19411752 -0.036727097 -0.052654505 0.132737 0.048299015 -0.016694784 0.18907419
-0.21991783 0.09306539 0.038847312 -0.22305545 -0.02258759 0.09357701 0.08602533 0.18151872
0.16299999 -0.070164405 -0.0487888 0.025744643 0.021835579 0.041380093 -0.050398614 0.1592812
0.46611017 0.082646556 -0.0687558 -0.2623838 -0.19630043 0.05445732 0.010410893 0.06423102
0.22753039 0.09444658 0.051538777 0.008076833 0.39173502 0.06880822 -0.16254035 -0.20695823
0.011021785 0.10459614 0.13469724 -0.111510724 -0.15954617 0.10007099 0.08963634 0.1384037
-0.047680885 0.09887575 -0.019885758 0.12162139 -0.10994595 0.12249333 0.0728503 -0.062580094
0.14573509 -0.12637895 0.18232265 0.05484049 0.07206301 0.15719405 0.09487894 0.15409201
0.16334374 -0.13838033 0.11436048 0.017509224 0.05303649 0.06925357 0.17806354 0.015863433
-0.12746699 0.054860916 -0.13425738 0.069177456 -0.15105768 0.06398898 0.15178695 -0.14653455
-0.053131424 0.07583098 -0.00726018 0.021949451 -0.10746886 0.17456914 0.022802083 0.02019576
0.05403549 -0.07158022 0.044201173 0.026095517 0.24488914 -0.030833472 -0.048272528 0.06850069
-0.1358505 -0.09208127 0.0070977984 0.029012648 0.08479508 0.1312294 0.12934433 0.05718913
0.08353159 0.1718503 0.14077696 0.27487317 0.14092013 0.043870375 -0.022857623 0.15734842
-0.239521 0.08371685 0.052123938 0.04832413 0.21338509 -0.02521322 0.22699471 0.056529343
0.13487448 0.18615478 -0.078894384 0.070557766 0.0030826177 0.14818497 -0.08928493 0.17651618
0.18115038 0.15663081 0.22919884 0.07329492 -0.14569561 0.16153131 0.056028303 0.07141417
-0.014641599 -0.096891016 -0.15183288 0.2089047 0.2132929 0.21252039 0.2108291 0.0025261224
-0.01657599 -0.017729625 -0.01923806 0.19287293 -0.06747653 -0.025101481 -0.17764434 -0.3025097
0.10558958 0.23785594 0.21232648 0.18232492 -0.10082413 -0.13601604 -0.06441749 0.14232591
0.08341656 0.23766348 0.20623472 0.03918112 0.43318078 0.15339874 0.200542 0.101727724
-0.26363686 -0.055375874 -0.029481212 -0.19266982 0.011054966 -0.2741648 -0.29282138 -0.22053128
-0.03306719 0.017161721 0.003622773 0.10888465 -0.059088603 0.12735704 0.10438787 0.13351391
0.21227299 0.19225386 -0.009692198 -0.08575788 -0.13297382 -0.23237553 -0.08705901 -0.07940681
0.18793048 0.12322584 0.022349715 0.052754633 -0.03226635 -0.035748553 0.13973698 -0.14926662
0.21031722 -0.040974315 -0.0811455 0.06106561 0.09588034 0.09742328 0.010062482 0.01822394
-0.080260746 -0.11090409 -0.058457658 0.04558295 0.12102423 0.050705474 -0.18764928 0.004209936
0.016936142 -0.07685473 -0.1929886 0.047168802 0.034671772 0.18535852 0.14298525 -0.105962336
-0.19698437 0.040493988 -0.013177131 0.09807229 -0.13604766 0.06519243 -0.14958385 -0.12892182
0.0033172073 0.20580958 0.12996897 -0.03443194 0.025794525 0.013023824 -0.06892192 0.104429506
00000000: 07e9 30be e43c 12be c756 5cbe 7102 453c
00000010: a103 13be 277f ae3d 4579 98bc ffce 0ebd
00000020: d58d 8d3b b7be f8bc c6b8 b0bd f79e d83c
00000030: 0822 08bd 780b 96bd 4e92 cdbd 07f4 b0bd
00000040: 6a59 e0bd bec6 463e 276f 16bd 40ac 57bd
00000050: 35ec 073e 30d5 453d 80c3 88bc aa9c 413e
00000060: 2432 61be 1199 be3d 5c1e 1f3d a668 64be
00000070: 9c09 b9bc 4ea5 bf3d 0c2e b03d 0be0 393e
00000080: 78e9 263e 5bb2 8fbd c4d6 47bd 6ee6 d23c
00000090: 87e0 b23c 2c7e 293d c76e 4ebd 9c1a 233e
000000a0: fea5 ee3e 9942 a93d d7cf 8cbd 2b57 86be
000000b0: fb02 49be a40e 5f3d 7392 2a3c 8e8b 833d
000000c0: bafd 683e 356d c13d 531a 533d b154 043c
000000d0: 7e91 c83e 53eb 8c3d fa70 26be dcec 53be
000000e0: b894 343c 8036 d63d 13ee 093e bc5f e4bd
000000f0: 1260 23be 05f2 cc3d 4293 b73d b3b9 0d3e
00000100: 084d 43bd 5f7f ca3d 75e7 a2bc a314 f93d
00000110: 582b e1bd c8dd fa3d 8a32 953d fe29 80bd
00000120: 943b 153e 7c69 01be cab2 3a3e 6ca0 603d
00000130: c595 933d 7af7 203e e44f c23d 4cca 1d3e
00000140: 9543 273e 93b3 0dbe d435 ea3d 816f 8f3c
00000150: ca3c 593d d1d4 8d3d 4a56 363e 08f4 813c
00000160: b586 02be d7b5 603d c47a 09be e9ac 8d3d
00000170: ddae 1abe a80c 833d 0a6e 1b3e 270d 16be
00000180: 56a0 59bd 464d 9b3d cee6 edbb 56cf b33c
00000190: a218 dcbd 41c2 323e 6fcb ba3c 9471 a53c
000001a0: 5154 5d3d a698 92bd 4a0c 353d 44c6 d53c
000001b0: 38c4 7a3e 7a96 fcbc 6ab9 45bd 174a 8c3d
000001c0: 651c 0bbe 1b95 bcbd a694 e83b efab ed3c
000001d0: 0ba9 ad3d 0061 063e d772 043e 263f 6a3d
000001e0: 9c12 ab3d 86f9 2f3e d627 103e 2dbc 8c3e
000001f0: 5e4d 103e 6cb1 333d e93f bbbc f21f 213e
00000200: fe44 75be bd73 ab3d e97f 553d 86ef 453d
00000210: 9f81 5a3e f48b cebc 4d71 683e 508b 673d
00000220: 891c 0a3e 5c9f 3e3e 6193 a1bd 9780 903d
00000230: be05 4a3b cdbd 173e 04db b6bd a8c0 343e
00000240: 7c7f 393e d463 203e 1ab3 6a3e a61b 963d
00000250: 3b31 15be 7768 253e ef7d 653d 9841 923d
00000260: 51e3 6fbc cc6e c6bd 147a 1bbe 1deb 553e
00000270: 7469 5a3e f29e 593e 95e3 573e 4d8d 253b
00000280: 5fca 87bc b83d 91bc 2399 9dbc 7b80 453e
00000290: 2331 8abd 9fa1 cdbc 66e8 35be 8de2 9abe
000002a0: 5a3f d83d 8290 733e 1d6c 593e 62b3 3a3e
000002b0: e27c cebd ca47 0bbe 51ed 83bd e2bd 113e
000002c0: 4dd6 aa3d 0e5e 733e 322f 533e 627c 203d
000002d0: dfc9 dd3e 8f14 1d3e e25a 4d3e a056 d03d
000002e0: 69fb 86be d0d1 62bd 9582 f1bc 3d4b 45be
000002f0: e31f 353c 545f 8cbe afec 95be f4d2 61be
00000300: 7671 07bd bd96 8c3c 0c6c 6d3b eafe de3d
00000310: e406 72bd e269 023e 4fc9 d53d dfb7 083e
00000320: 175e 593e 32de 443e 06cc 1ebc d4a1 afbd
00000330: 4a2a 08be daf3 6dbe ff4b b2bd 0aa0 a2bd
00000340: d970 403e d45d fc3d c016 b73c 3e15 583d
00000350: b829 04bd 136d 12bd 3617 0f3e 59d9 18be
00000360: 665d 573e afd4 27bd 9d2f a6bd ef1f 7a3d
00000370: e95c c43d db85 c73d 1cdd 243c 5f4a 953c
00000380: bf5f a4bd af21 e3bd 4c71 6fbd 30b5 3a3d
00000390: 8ddb f73d 8bb0 4f3d 2227 40be 81f3 893b
000003a0: aabd 8a3c 0366 9dbd ce9e 45be 1334 413d
000003b0: fd03 0e3d a0ce 3d3e ba6a 123e c802 d9bd
000003c0: 45b6 49be 06dd 253d e5e4 57bc 20da c83d
000003d0: 1450 0bbe 9c83 853d 822c 19be 1504 04be
000003e0: 8165 593b bfbf 523e 9616 053e 8208 0dbd
000003f0: 0a4f d33c e161 553c f026 8dbd 23df d53d

lstm.weight_hh_l0 f4 [128, 32]
0.27457163 0.09244121 0.2548057 0.2616965 -0.27601495 0.08408764 0.1729357 -0.02204283
-0.22750449 0.2442675 -0.118933596 -0.13966516 0.3193587 -0.019323902 0.03132148 -0.072768465
-0.027106442 0.33856204 0.3423549 0.085591264 -0.10854312 0.16726029 -0.2552025 0.21881108
0.21305831 -0.12161496 0.06656276 0.13485333 -0.08170802 0.31285647 0.27179676 0.053798966
0.29232314 0.11026243 0.07223416 -0.18602684 -0.1380749 0.023155218 -0.30490866 0.015299209
-0.13359559 0.38611934 -0.26753494 -0.17417116 -0.025928393 0.22538555 -0.07317356 -0.203374
0.006835496 0.010262753 -0.059421457 0.42346832 0.2843772 0.03703249 -0.038418815 -0.41677812
-0.000461955 -0.088871144 -0.030340452 0.17830046 0.32847688 0.11369395 0.2664662 0.1977643
-0.016240299 -0.13113314 -0.2415726 -0.055644486 0.12714846 0.19813459 0.18122944 0.26545167
0.022672059 0.074518 -0.1426522 -0.13531685 -0.14160763 0.41914225 -0.0062444415 -0.22033119
0.2009904 0.024100658 0.031485304 0.23344645 0.19323173 0.023428766 0.21668154 0.055172455
-0.040298622 -0.018700307 -0.3122812 0.17768677 0.2684594 -0.17233543 0.048935913 -0.06806211
0.06338991 -0.4026562 -0.24353153 0.38606945 0.22534369 0.12230589 0.08855005 0.19892238
0.2649325 0.2053716 0.2061539 -0.018189492 -0.42366806 0.023413338 0.19731514 -0.16343078
0.19921663 -0.39182523 0.14502205 -0.12939553 0.080826186 -0.17784356 0.12035214 0.07458076
-0.08869286 0.32776046 0.040654972 -0.095963135 -0.049621843 -0.123010494 -0.2193598 -0.2845416
0.12270763 -0.08330429 -0.12654002 0.16083683 0.16470188 -0.014311866 0.1888967 -0.032641936
0.039209124 0.18734334 -0.23472089 -0.17201169 -0.12167327 0.46232733 -0.06853054 -0.21947926
-0.07670338 -0.0536378 -0.17925416 0.12077828 0.050899792 -0.27521494 0.06943245 -0.14498232
-0.17596589 0.1403255 -0.26626068 0.028926086 0.22574109 -0.10165539 -0.19977944 -0.1177081
0.13624243 -0.40125754 -0.22724783 -0.10872284 0.11805852 0.036843654 -0.16102983 0.25611812
-0.027856601 0.19590436 -0.08394561 -0.056798436 -0.10907474 -0.1657063 0.28171965 -0.079076804
0.1254062 -0.24845739 0.067722395 0.13181491 0.18855667 -0.12690744 0.04546478 0.055095937
0.00052039966 0.25226772 -0.15979788 -0.1337709 -0.10944825 0.025857558 -0.10804865 -0.24422307
0.25562087 -0.29059833 -0.11715674 0.37993127 0.05548861 0.25230497 0.016688725 0.19343138
0.008958524 0.048671324 -0.12266847 -0.045308914 -0.12814517 0.54629165 0.36715302 0.0058345823
0.17889255 -0.1779937 -0.027663965 0.25682622 0.15427665 -0.17961487 0.07315891 -0.2011731
-0.3246018 0.2472251 -0.22822644 0.28374723 0.28744757 -0.25508273 -0.05520249 -0.087817505
0.032842897 0.011898836 0.08774398 0.33386666 0.04744076 0.21399204 0.032624803 -0.0018200893
0.14711088 0.2708855 -0.06790833 -0.29830274 0.08370549 0.066622406 0.20585065 -0.0031771641
0.17780834 0.11880395 -0.007830941 0.2623113 0.11384374 0.11204297 0.11943157 -0.008655166
-0.19231123 0.16505681 0.06661528 -0.113995746 0.30018023 -0.1823147 -0.17914645 -0.2068251
00000000: a794 8c3e d151 bd3d e575 823e 15fd 853e
00000010: d551 8dbe 2436 ac3d 0e16 313e 2a93 b4bc
00000020: f0f6 68be 4221 7a3e 7593 f3bd 6204 0fbe
00000030: fc82 a33e 294d 9ebc f44a 003d a207 95bd
00000040: 540e debc 0158 ad3e 2449 af3e 794a af3d
00000050: db4b debd 4846 2b3e e7a9 82be 0310 603e
00000060: f52b 5a3e 4411 f9bd 0e52 883d fe16 0a3e
00000070: 8956 a7bd b92e a03e f228 8b3e 4e5c 5c3d
00000080: 61ab 953e 45d1 e13d 81ef 933d d27d 3ebe
00000090: 8263 0dbe 03b0 bd3c fd1c 9cbe 89a9 7a3c
000000a0: 48cd 08be 6fb1 c53e 57fa 88be ed59 32be
000000b0: c867 d4bc 78cb 663e 05dc 95bd 4641 50be
000000c0: 4cfc df3b 1b25 283c ea63 73bd d7d0 d83e
000000d0: e399 913e 61af 173d 0c5d 1dbd f163 d5be
000000e0: 8d32 f2b9 1302 b6bd 8a8c f8bc 6594 363e
000000f0: 1f2e a83e 60d8 e83d 426e 883e ba82 4a3e
00000100: 600a 85bc c447 06be cf5e 77be 79eb 63bd
00000110: 3533 023e cbe3 4a3e 3694 393e 48e9 873e
00000120: c1ba b93c e59c 983d 6b13 12be 8090 0abe
00000130: 9701 11be d099 d63e 2c9e ccbb 809e 61be
00000140: 6dd0 4d3e be6e c53c bcf6 003d 960c 6f3e
00000150: 8ade 453e afed bf3c c4e1 5d3e 83fc 613d
00000160: 2b10 25bd 6331 99bc 52e3 9fbe 85f3 353e
00000170: 8373 893e b378 30be 0671 483d 2664 8bbd
00000180: 92d2 813d f428 cebe 5460 79be e5aa c53e
00000190: 7fc0 663e 837b fa3d bb59 b53d 4fb2 4b3e
000001a0: 3ca5 873e ef4c 523e 021a 533e 2102 95bc
000001b0: 05eb d8be 54cd bf3c fb0c 4a3e 665a 27be
000001c0: 72ff 4b3e 519d c8be a980 143e 4380 04be
000001d0: 3388 a53d 9f1c 36be 2f7b f63d ccbd 983d
000001e0: 9aa4 b5bd 38d0 a73e d485 263d 5288 c4bd
000001f0: 4640 4bbd edec fbbd db9f 60be 70af 91be
00000200: 234e fb3d 719b aabd b593 01be 69b2 243e
00000210: 9ca7 283e 517c 6abc 236e 413e 8db3 05bd
00000220: bf99 203d efd6 3f3e ac5a 70be d523 30be
00000230: d62f f9bd 2bb6 ec3e bd59 8cbd 2cbf 60be
00000240: a916 9dbd 4fb3 5bbd 678e 37be 9a5a f73d
00000250: 4d7c 503d f9e8 8cbe 9a32 8e3d 3f76 14be
00000260: 6730 34be 7db1 0f3e 5253 88be 66f6 ec3c
00000270: ac28 673e b330 d0bd fb92 4cbe f210 f1bd
00000280: 2383 0b3e a171 cdbe a8b3 68be 15aa debd
00000290: aac8 f13d 5fe9 163d 01e5 24be ea21 833e
000002a0: 8733 e4bc 279b 483e adeb abbd 7aa5 68bd
000002b0: 9462 dfbd eaae 29be 8f3d 903e 05f3 a1bd
000002c0: 7c6a 003e 9d6b 7ebe 0ab2 8a3d 7dfa 063e
000002d0: 0015 413e 06f4 01be 4739 3a3d 47ac 613d
000002e0: 6e6b 083a 3c29 813e 0ea2 23be 3dfb 08be
000002f0: 6726 e0bd 3bd3 d33c 9c48 ddbd 9d15 7abe
00000300: bde0 823e 4ec9 94be dfef efbd 5a86 c23e
00000310: 0648 633d 1e2e 813e cbb6 883c e012 463e
00000320: c6c6 123c 955b 473d 9b39 fbbd d795 39bd
00000330: 7d38 03be c5d9 0b3f 7bfb bb3e 0630 bf3b
00000340: 9c2f 373e fb43 36be 8a9f e2bc ba7e 833e
00000350: b3fa 1d3e f6ec 37be 57d4 953d 5200 4ebe
00000360: 3532 a6be 9428 7d3e 31b4 69be 5147 913e
00000370: 542c 933e 349a 82be 021c 62bd aad9 b3bd
00000380: 4686 063d 56f3 423c 1eb3 b33d 92f0 aa3e
00000390: 3e51 423d bb20 5b3e 96a1 053d 1090 eeba
000003a0: 3ca4 163e 81b1 8a3e 8613 8bbd 23bb 98be
000003b0: c96d ab3d 5471 883d 83ca 523e f837 50bb
000003c0: 6413 363e 7c4f f33d 594d 00bc ab4d 863e
000003d0: e826 e93d c976 e53d 8a98 f43d 66ce 0dbc
000003e0: 3ced 44be a704 293e 986d 883d 9a76 e9bd
000003f0: 39b1 993e b4b0 3abe 2b72 37be f6c9 53be

lstm.bias_ih_l0 f4 [128]
-0.12190353 0.081287384 0.17983216 0.15602511 0.16571546 0.09152741 0.36946806 0.16256808
0.17005971 0.20883654 0.098451346 0.20631865 0.13880326 -0.15552571 0.18580842 0.068550944
0.16877808 0.1425303 0.20986916 -0.01149711 -0.12879087 0.18302129 0.105332665 0.07382554
0.025264923 0.21242742 0.013430037 0.06614379 0.053188685 0.27597168 0.060373407 0.39756274
-0.02247557 0.057385217 0.08113468 -0.05405951 0.19610174 -0.06279252 -0.12979789 0.082287714
0.0019999493 -0.19572468 0.045629907 -0.043720238 0.16835496 0.15062958 -0.02634885 -0.17909038
-0.045996223 0.2932817 0.07828019 0.05979772 -0.09089595 0.17216112 0.16056308 -0.15379444
0.12921193 0.029922532 0.053150624 0.01589343 0.13760827 0.2337207 0.0020465415 0.23766045
-0.018288806 -0.0799865 -0.07737051 -0.10243487 0.23395006 0.11287274 0.21452712 0.05322961
-0.10396344 -0.034736134 -0.11963772 -0.02367143 0.120597854 0.13099031 -0.08873151 -0.032700676
0.18482795 -0.23579831 -0.101129085 -0.084567614 0.07458471 -0.12888326 0.08181672 0.17493153
0.052440435 -0.015333405 -0.1375198 0.07105169 0.052150443 -0.15617141 -0.088051476 0.13546535
-0.19092485 0.16950499 0.13310698 0.23771468 0.26253128 -0.15049265 0.35150892 0.15263392
0.104629 0.002967963 -0.12311913 0.12468122 0.17805487 -0.042773094 0.116962686 0.2768266
-0.089499705 0.16975567 -0.05761187 0.13213749 -0.10762263 -0.012447596 0.14755122 0.035142843
-0.31134662 0.06540135 0.005467468 0.17154227 -0.09675663 -0.049084805 0.1024262 0.26538354
00000000: 8fa8 f9bd 007a a63d ec25 383e 0cc5 1f3e
00000010: 50b1 293e b972 bb3d eb2a bd3e 3f78 263e
00000020: 2224 2e3e 3fd9 553e dca0 c93d 3245 533e
00000030: 7122 0e3e 2242 1fbe 9044 3e3e 7064 8c3d
00000040: 29d4 2c3e 77f3 113e f1e7 563e 605e 3cbc
00000050: c1e1 03be ef69 3b3e a7b8 d73d d831 973d
00000060: 62f8 ce3c 9386 593e a809 5c3c 6576 873d
00000070: 61dc 593d 294c 8d3e 1b4a 773d 588d cb3e
00000080: b01e b8bc c30c 6b3d f029 a63d 816d 5dbd
00000090: e5ce 483e 5d99 80bd bde9 04be 7686 a83d
000000a0: 9511 033b 0d6c 48be 6de6 3a3d fe13 33bd
000000b0: 3e65 2c3e a43e 1a3e 8bd9 d7bc 7863 37be
000000c0: 8966 3cbd 0529 963e 5d51 a03d 74ee 743d
000000d0: a827 babd 014b 303e a66a 243e 4a7c 1dbe
000000e0: 2250 043e 1920 f53c 78b4 593d f032 823c
000000f0: 2fe9 0c3e 7b54 6f3e 451f 063b 435d 733e
00000100: 68d2 95bc f6cf a3bd 6e74 9ebd 60c9 d1bd
00000110: 9b90 6f3e d329 e73d ffac 5b3e 4b07 5a3d
00000120: c9ea d4bd 7a47 0ebd 9f04 f5bd 96ea c1bc
00000130: 02fc f63d 5322 063e deb8 b5bd 25f1 05bd
00000140: 8a43 3d3e 1d75 71be c41c cfbd c931 adbd
00000150: debf 983d f9f9 03be 868f a73d 4021 333e
00000160: c8cb 563d f638 7bbc fed1 0cbe 8c83 913d
00000170: b49b 553d 66eb 1fbe 5554 b4bd 6eb7 0a3e
00000180: ce81 43be b792 2d3e 324d 083e 7a6b 733e
00000190: 806a 863e bf1a 1abe faf8 b33e 114c 1c3e
000001a0: bb47 d63d 2882 423b e225 fcbd de58 ff3d
000001b0: 0454 363e d732 2fbd 228a ef3d 37bc 8d3e
000001c0: 9f4b b7bd 6ed4 2d3e 6dfa 6bbd 0d4f 073e
000001d0: 4169 dcbd 00f1 4bbc ab17 173e f1f1 0f3d
000001e0: d368 9fbe 25f1 853d 7228 b33b c7a8 2f3e
000001f0: 5728 c6bd 260d 49bd d4c4 d13d 5ae0 873e

lstm.bias_hh_l0 f4 [128]
-0.06537356 0.26821297 0.051304106 0.18955246 0.024661044 0.31167734 0.3174375 0.094308846
0.16513863 0.25676826 -0.15012023 0.07161024 0.2346122 0.057915896 0.093932316 0.086834006
0.014616449 0.26059347 0.14920536 -0.041255306 -0.017300643 0.14897172 -0.1677924 0.26464584
-0.041434627 -0.00125752 0.015529117 0.1794168 -0.009742193 0.28429326 0.18989623 0.26049742
-0.0071321623 0.13723625 0.02644939 -0.03392638 0.09249341 -0.03390835 -0.14623304 0.16984025
-0.0001471361 0.08604062 0.14606872 0.050219417 0.1661509 0.19534358 0.110457726 -0.088139124
0.05872483 0.09358778 0.039613463 -0.13179842 0.057796463 0.103112265 0.20830493 -0.15395471
0.02980788 -0.034822505 -0.10526658 -0.20563863 0.019794341 0.16350453 0.00960116 0.11091029
0.09792473 -0.18215609 0.10376845 -0.07843963 0.10579219 0.057983797 -0.032168943 0.11038678
0.16923118 -0.06360926 -0.16088371 0.09361135 0.10248909 0.046766672 0.03413782 0.08567068
0.07304796 -0.059280705 -0.10646112 -0.10855562 0.202099 -0.16293098 -0.072166845 0.006491945
-0.15985169 0.12657005 -0.2002583 -0.12513232 -0.0014595129 0.06280448 0.050369218 0.19926119
-0.14316592 0.050890766 0.17013395 0.13316359 0.26585674 -0.048302535 0.06893483 0.144468
0.0039771507 0.16506971 0.03099343 0.012161449 0.23060152 -0.12736079 0.008776966 0.32398275
0.11611494 -0.019461699 0.16177066 0.12525055 -0.20064245 -0.017636124 0.04910718 0.14167863
-0.2471168 0.027706178 0.16461782 -0.06041427 0.03803289 0.18011582 0.24193817 0.13061902
00000000: 93e2 85bd 3653 893e 4124 523d 0a1a 423e
00000010: f505 ca3c 2c94 9f3e 2b87 a23e ff24 c13d
00000020: 1a1a 293e 2177 833e 1eb9 19be 64a8 923d
00000030: 2e3e 703e 3839 6d3d 965f c03d 07d6 b13d
00000040: d579 6f3c 826c 853e 4ac9 183e 53fb 28bd
00000050: 14ba 8dbc 0b8c 183e c5d1 2bbe a97f 873e
00000060: 5bb7 29bd 5fd3 a4ba d66d 7e3c 0ab9 373e
00000070: b89d 1fbc e38e 913e 2874 423e eb5f 853e
00000080: eab4 e9bb a987 0c3e 64ac d83c 63f6 0abd
00000090: 2f6d bd3d 7be3 0abd 1dbe 15be 9aea 2d3e
000000a0: 8c48 1ab9 1136 b03d 0a93 153e e0b2 4d3d
000000b0: 7623 2a3e 2608 483e a937 e23d 4982 b4bd
000000c0: 7389 703d f3aa bf3d ba41 223d 2af6 06be
000000d0: fcbb 6c3d 862c d33d e34d 553e 4ea6 1dbe
000000e0: a82f f43c 0ba2 0ebd 0196 d7bd ef92 52be
000000f0: be27 a23c bb6d 273e 2f4e 1d3c ef24 e33d
00000100: c38c c83d 2087 3abe 8e84 d43d f5a4 a0bd
00000110: 93a9 d83d 6b80 6d3d 95c3 03bd 7712 e23d
00000120: f04a 2d3e 9245 82bd b3be 24be 4fb7 bf3d
00000130: cde5 d13d 698e 3f3d 19d4 0b3d 1c74 af3d
00000140: 2b9a 953d 53d0 72bd 4a08 dabd 6952 debd
00000150: 0af3 4e3e 61d7 26be 36cc 93bd 62ba d43b
00000160: 29b0 23be 949b 013e 8310 4dbe b022 00be
00000170: 204d bfba a39f 803d f44f 4e3d 200b 4c3e
00000180: 169a 12be d672 503d 9837 2e3e 095c 083e
00000190: 601e 883e e1d8 45bd b42d 8d3d 6bef 133e
000001a0: c252 823b 0908 293e efe5 fd3c d040 473c
000001b0: ce22 6c3e de6a 02be 43cd 0f3c 11e1 a53e
000001c0: abcd ed3d 246e 9fbc 35a7 253e ae41 003e
000001d0: 3775 4dbe a279 90bc 9c24 493d 3414 113e
000001e0: 300c 7dbe 11f8 e23c 9391 283e f474 77bd
000001f0: 60c8 1b3d 4870 383e a4be 773e fec0 053e

region_embedding.weight f4 [15, 32]
0.37004662 -1.2491188 0.27734798 0.1870939 -0.10487843 -0.2799948 1.0096343 0.8783227
0.8756023 -0.86298597 -1.374141 -0.6971356 0.29387695 -0.27204132 0.31337956 -1.060561
-0.34677374 0.617956 -0.84376377 -0.035724692 -0.28137684 0.5335333 0.4771128 1.8613185
0.22344647 0.9988216 0.0018818558 0.33103213 0.06608432 -0.26122147 0.19033618 0.802914
0.28237653 -1.8403682 0.18816873 -1.4522165 1.4667082 0.9349684 0.25753054 0.91581726
-1.3670529 0.6224501 0.12310407 -0.17781615 2.9330547 0.46276703 -0.62643594 -1.377159
1.0559757 -0.43344027 2.270435 2.0011656 -2.1169581 0.35138717 -0.9149424 -0.2864831
-1.139209 0.072054274 0.0007797196 -0.1400318 0.9105306 -1.0649498 0.4575485 0.15436618
2.2319138 -1.47902 0.5692161 -1.1462495 -1.9049038 0.9906712 -0.99673074 -2.304296
-0.7998435 1.6571007 -0.5442659 0.36863375 -0.17834435 -0.70948684 0.24787208 0.74450374
-0.9662234 0.41492453 2.0801644 0.14931498 -0.41593066 1.2188114 0.8605816 0.89880097
-0.24380657 -0.011584565 0.19051908 0.4535163 -0.27221897 0.43777442 0.66741234 -0.81143457
1.1801542 -0.26683116 -1.2189316 0.14258777 -0.3157067 1.4236835 1.0125264 -0.7147459
0.9864033 0.88020223 -0.716422 -1.3230517 1.0481868 -1.7053356 0.6004591 1.829581
0.33869407 -0.51121986 0.23932333 0.95448095 0.16341786 -0.3099982 0.15972714 0.8302737
-2.0145774 -0.094494745 0.076466925 0.15851547 -0.38410187 -1.4129188 -1.0182604 0.4253366
0.42578676 -1.3338559 -2.0718472 -1.8923322 2.4196026 -0.2442377 -0.26635617 -0.675529
-0.9228489 1.8602605 0.6256696 0.28849465 0.8962987 0.88400143 0.41073605 -1.6067784
0.4908682 1.4608655 -1.638853 0.985434 0.0113467015 0.3140886 1.0813081 0.16363499
-0.7958074 -0.6727943 -1.8205945 -0.1695429 -0.97463167 -0.55930036 -0.26452902 0.2448411
-0.64860874 0.3468239 -0.18216309 -0.1291708 0.7775542 0.30303973 -0.8394461 0.49008736
0.9025205 -1.4860045 0.937418 -0.5453174 0.48534718 0.6994611 -0.28342336 -0.115920655
0.15808141 1.1435766 0.042469993 -0.1286618 -0.32013038 1.3020575 0.05820586 -1.4115343
0.2302063 -1.1051533 1.3300304 -0.41862917 -0.43831325 1.0452756 0.7565827 1.3442823
1.0920194 -1.643362 -0.75285846 -0.81859595 0.022914266 -0.7729488 -0.039141007 0.30586404
0.4473743 -0.21813123 0.3616786 -1.0170994 0.7204318 -0.10523298 1.8706087 0.8992231
-0.46301517 1.1221051 -1.2755296 1.9688495 1.1931819 -0.9534569 0.68926054 -0.03748741
-1.3003806 -0.9309435 -0.4104326 1.6298463 -0.39645755 -0.8092941 -0.8157676 -0.17908803
-0.44117394 -0.81557554 1.1422392 0.16099726 1.1248847 0.095035516 0.66804636 0.22494571
1.238943 0.4524131 -0.7356429 1.4618098 0.05668653 -0.62402713 -0.30872402 0.18612053
0.38954523 1.3893702 -1.4594411 0.7733556 1.2817216 1.9221977 1.5146862 -0.9400398
-1.1021225 0.47030592 -1.1514455 -0.6767636 0.97934157 0.7851172 0.9229854 -1.3558964
00000000: c076 bd3e 20e3 9fbf 8e00 8e3e 8b95 3f3e
00000010: 81ca d6bd 7a5b 8fbe b23b 813f c2d9 603f
00000020: 7927 603f a6ec 5cbf dae3 afbf 7b77 32bf
00000030: 0a77 963e 0049 8bbe 4973 a03e 76c0 87bf
00000040: 548c b1be 5d32 1e3f e700 58bf 0e54 12bd
00000050: a010 90be a395 083f 2148 f43e af3f ee3f
00000060: 27cf 643e c6b2 7f3f 9aa8 f63a 0b7d a93e
00000070: 3757 873d d2be 85be 7de7 423e c68b 4d3f
00000080: a893 903e 2f91 ebbf 4eaf 403e 3be2 b9bf
00000090: 18bd bb3f 175a 6f3f 0bdb 833e 0073 6a3f
000000a0: 97fb aebf e458 1f3f fd1d fc3d 7015 36be
000000b0: 2bb7 3b40 cdef ec3e 1b5e 20bf bf46 b0bf
000000c0: 362a 873f e2eb ddbe cf4e 1140 1913 0040
000000d0: 3e7c 07c0 05e9 b33e aa39 6abf eaad 92be
000000e0: 9ad1 91bf 3191 933d 1966 4c3a 7f64 0fbe
000000f0: 8918 693f 4650 88bf cc43 ea3e 2b12 1e3e
00000100: add7 0e40 8750 bdbf 25b8 113f 4eb8 92bf
00000110: e3d3 f3bf a19c 7d3f bf29 7fbf 9679 13c0
00000120: 8bc2 4cbf e01b d43f 0355 0bbf 90bd bc3e
00000130: e79f 36be eea0 35bf 2ed2 7d3e cc97 3e3f
00000140: 6b5a 77bf fd70 d43e 6a21 0540 07e6 183e
00000150: ddf4 d4be 0302 9c3f 134f 5c3f d217 663f
00000160: 6ea8 79be 30cd 3dbc 6f17 433e 4a33 e83e
00000170: 4960 8bbe f823 e03e 89db 2a3f 2dba 4fbf
00000180: 4b0f 973f 189e 88be f305 9cbf 8702 123e
00000190: 4fa4 a1be 433b b63f 779a 813f 96f9 36bf
000001a0: ed84 7c3f ef54 613f 6f67 37bf c259 a9bf
000001b0: fc2a 863f 7048 dabf b0b7 193f b62f ea3f
000001c0: 4f69 ad3e 4edf 02bf 2d11 753e dd58 743f
000001d0: 0357 273e 16b8 9ebe 838f 233e d18c 543f
000001e0: d6ee 00c0 7686 c1bd b19a 9c3d e151 223e
000001f0: 00a9 c4be 86da b4bf 5b56 82bf b8c5 d93e
00000200: b900 da3e cabb aabf 2599 04c0 f137 f2bf
00000210: c5da 1a40 7319 7abe d65f 88be 78ef 2cbf
00000220: d33f 6cbf 041d ee3f e22b 203f 92b5 933e
00000230: d573 653f eb4d 623f ff4b d23e eaaa cdbf
00000240: 1453 fb3e a4fd ba3f efc5 d1bf 6745 7c3f
00000250: 84e7 393c 39d0 a03e 4e68 8a3f ee8f 273e
00000260: 09ba 4bbf 3f3c 2cbf 3e09 e9bf a79c 2dbe
00000270: 7681 79bf 4f2e 0fbf 5970 87be a0b7 7a3e
00000280: 390b 26bf e792 b13e f688 3abe 5a45 04be
00000290: cb0d 473f 0628 9b3e f1e5 56bf bbec fa3e
000002a0: 950b 673f 6535 bebf a0fa 6f3f ec99 0bbf
000002b0: 6d7f f83e e20f 333f de1c 91be cf67 edbd
000002c0: 18e0 213e b860 923f 04f5 2d3d ebbf 03be
000002d0: 21e8 a3be d2a9 a63f 4569 6e3d 28ad b4bf
000002e0: 33bb 6b3e aa75 8dbf 703e aa3f 9056 d6be
000002f0: 986a e0be 97cb 853f 67af 413f 7111 ac3f
00000300: 4bc7 8b3f b059 d2bf 55bb 40bf 818f 51bf
00000310: b3b6 bb3c f9df 45bf 5252 20bd 369a 9c3e
00000320: 3f0e e53e cb5d 5fbe f02d b93e 5030 82bf
00000330: 386e 383f 6384 d7bd 1b70 ef3f 7c33 663f
00000340: 5310 edbe 24a1 8f3f 8e44 a3bf 4303 fc3f
00000350: 2fba 983f c015 74bf 6173 303f 668c 19bd
00000360: df72 a6bf 5052 6ebf 3924 d2be ce9e d03f
00000370: 7cfc cabe e62d 4fbf 25d6 50bf da62 37be
00000380: 8de1 e1be 8fc9 50bf e534 923f 77dc 243e
00000390: 39fc 8f3f fba1 c23d 1605 2b3f 2b58 663e
000003a0: af95 9e3f b1a2 e73e 1853 3cbf 951c bb3f
000003b0: 2330 683d 3ec0 1fbf 1311 9ebe 6196 3e3e
000003c0: 7972 c73e e2d6 b13f f7ce babf a2fa 453f
000003d0: 740f a43f 930a f63f 3de1 c13f 73a6 70bf
000003e0: 5a12 8dbf f0cb f03e 9162 93bf 6140 2dbf
000003f0: 21b6 7a3f 71fd 483f c548 6c3f 038e adbf

classifier.0.weight f4 [32, 64]
-0.023485335 0.17419663 0.24646343 -0.16111921 -0.19017404 0.17247611 -0.3873025 0.01733489
-0.18476568 0.02823216 -0.31780353 -0.14049864 0.058851354 0.09856015 -0.15076989 -0.12668115
-0.14145109 0.0102291275 -0.098444775 -0.03434277 0.13601464 0.15834787 -0.0053409254 -0.20617463
-0.112920396 -0.0883016 0.023059895 0.071633466 0.13620612 0.1714485 0.13302362 0.012557258
0.079622544 0.0728387 0.01874799 0.13920975 0.050645802 0.0068062386 0.0024438892 -0.005075522
0.014945442 -0.04573145 -0.062188 -0.15822974 -0.047326457 -0.07665949 0.1339693 0.01495607
-0.14977992 -0.05328268 -0.110141404 0.080619514 -0.0072099664 0.13612758 -0.06320514 0.15323257
0.13814206 0.04457969 -0.10051889 0.08685636 -0.028311439 -0.088032015 0.08304815 -0.059476286
0.030418947 -0.0066663325 0.0011640191 0.0057275593 0.03013973 -0.07471366 0.05144818 -0.11726056
0.05258441 -0.10157332 0.12029509 0.030060664 0.034626186 0.0332077 0.024285212 -0.04780151
-0.12162852 0.07475436 0.075702235 -0.02286926 0.0062665194 -0.008034036 -0.028227538 0.08528413
-0.07473381 -0.116800755 -0.020664498 -0.07287826 -0.08255495 -0.03591928 -0.004809931 0.08210564
0.07034172 0.10174872 0.09354852 0.037594423 -0.0008149147 -0.003991157 -0.09487231 0.011916265
-0.029228821 -0.034428373 0.10507752 0.057355925 0.07842882 0.08074157 -0.07237396 0.036073804
-0.015680581 0.043623194 0.073489055 -0.031378582 0.09380004 0.0052255243 -0.02378288 0.08188839
0.09684342 -0.035270333 0.071891755 -0.027850613 -0.0038213432 -0.08884822 -0.053300515 0.01645656
0.023207208 0.2109793 0.10406515 -0.3133696 -0.009075814 0.20793939 -0.30407494 0.023341576
-0.1475611 0.024709892 -0.23017704 -0.11808557 0.06456288 0.21816625 -0.21178624 -0.11587079
-0.049711537 0.18517819 -0.12808847 0.005190702 0.054026198 0.16735056 0.004906798 -0.30734557
-0.118311964 -0.1783546 0.03158273 -0.055279475 -0.007196787 0.016100798 0.20485468 0.14530595
0.02623199 -0.052373454 0.018949652 0.12209199 -0.03751967 -0.007771932 0.053904932 0.08976297
0.09255908 -0.07367879 0.03402028 0.0043188925 0.035299715 -0.124630235 0.13271783 0.040599804
0.00074661104 0.06311893 -0.045912717 -0.11058212 -0.048960954 -0.09673243 0.12504648 0.06880813
0.049175594 -0.07013362 -0.10773858 0.08795888 -0.084338486 0.0075537055 0.108503595 -0.093598455
0.08421204 -0.2557393 -0.11723765 0.29199547 0.17887573 0.025182316 0.41659975 -0.047778018
0.10479033 -0.06887702 0.26376328 0.067555845 0.024489127 -0.16000149 0.13884252 0.02404917
-0.020354839 -0.12867576 0.08771085 -0.10554353 0.099931285 -0.1206143 -0.0054308884 0.34451964
-0.013914626 -0.003215213 -0.08200215 0.043255966 -0.065076195 0.010133244 -0.19723247 -0.0516662
-0.121704996 -0.11450808 0.045561023 0.06345227 -0.055533692 0.041252065 -0.029589614 0.0722176
0.01607586 -0.030693943 0.021119762 -0.1217813 0.07056641 0.11161107 0.10788921 -0.0745087
-0.053911116 -0.051188786 0.016922878 -0.09403507 -0.09529121 -0.04554675 0.11138012 0.035489216
-0.10789827 -0.055519216 -0.09274839 -0.0145125175 0.0020763166 -0.08762242 -0.09170565 -0.021900818
00000000: 5164 c0bc 9a60 323e e960 7c3e 6ffc 24be
00000010: fcbc 42be 949d 303e 834c c6be e601 8e3c
00000020: 3733 3dbe 2147 e73c 25b7 a2be e0de 0fbe
00000030: 1e0e 713d e7d9 c93d 6c63 1abe b4b8 01be
00000040: 8ed8 10be 1298 273c 6a9d c9bd 01ab 0cbd
00000050: 6c47 0b3e f225 223e ee02 afbb 711f 53be
00000060: cf42 e7bd 78d7 b4bd 1be8 bc3c 91b4 923d
00000070: 9e79 0b3e 3290 2f3e 5837 083e f5bc 4d3c
00000080: 2511 a33d 752c 953d 6295 993c 008d 0e3e
00000090: f971 4f3d de06 df3b a829 203b 9150 a6bb
000000a0: badd 743c e750 3bbd d8b8 7ebd fa06 22be
000000b0: 63d9 41bd a7ff 9cbd 402f 093e 4e0a 753c
000000c0: e85f 19be f13e 5abd d191 e1bd d81b a53d
000000d0: 9541 ecbb 0765 0b3e b271 81bd 00e9 1c3e
000000e0: 1d75 0d3e 3199 363d d9dc cdbd bfe1 b13d
000000f0: 64ed e7bc 214a b4bd 2615 aa3d 689d 73bd
00000100: 2831 f93c 4071 dabb 0092 983a 40ae bb3b
00000110: 98e7 f63c 7a03 99bd 54bb 523d 4e26 f0bd
00000120: c062 573d ac05 d0bd 465d f63d c841 f63c
00000130: 30d4 0d3d cc04 083d c8f1 c63c 84cb 43bd
00000140: 6018 f9bd d018 993d c609 9b3d 5058 bbbc
00000150: 6057 cd3b 30a1 03bc 703d e7bc 72a9 ae3d
00000160: 0a0e 99bd 3c35 efbd 9848 a9bc 3241 95bd
00000170: 9212 a9bd 1820 13bd a09c 9dbb 0027 a83d
00000180: 520f 903d a261 d03d 5e96 bf3d 9cfc 193d
00000190: 00a0 55ba 40c8 82bb 6a4c c2bd 703c 433c
000001a0: 4871 efbc c404 0dbd e232 d73d 0cee 6a3d
000001b0: 4a9f a03d d65b a53d cc38 94bd 20c2 133d
000001c0: 9074 80bc 3cae 323d 6e81 963d d486 00bd
000001d0: 3c1a c03d e03a ab3b 50d4 c2bc 1ab5 a73d
000001e0: d855 c63d a077 10bd fc3b 933d f826 e4bc
000001f0: 806f 7abb 0ef6 b5bd a451 5abd e8cf 863c
00000200: 0b1d be3c f50a 583e 1c20 d53d fb71 a0be
00000210: b9b2 14bc 10ee 543e b6af 9bbe d536 bf3c
00000220: 421a 17be 666c ca3c 88b3 6bbe d9d6 f1bd
00000230: 8b39 843d f966 5f3e 7ede 58be aa4d edbd
00000240: 539e 4bbd 5a9f 3d3e a029 03be c416 aa3b
00000250: 934a 5d3d f25d 2b3e 34c9 a03b 665c 9dbe
00000260: 8b4d f2bd 97a2 36be e55c 013d bb6c 62bd
00000270: 06d3 ebbb d2e5 833c 6dc5 513e 15cb 143e
00000280: 78e4 d63c 8c85 56bd 4d3c 9b3c 5e0b fa3d
00000290: 3aae 19bd b1ab febb 6bcb 5c3d a6d5 b73d
000002a0: 9d8f bd3d e8e4 96bd d958 0b3d 7f85 8d3b
000002b0: 6f96 103d 233e ffbd 2fe7 073e fb4b 263d
000002c0: 38b8 433a 7f44 813d f90e 3cbd e178 e2bd
000002d0: 488b 48bd a71b c6bd 2f0c 003e 47eb 8c3d
000002e0: 596c 493d 37a2 8fbd 0ba6 dcbd c923 b43d
000002f0: a8b9 acbd 1385 f73b 2237 de3d 8cb0 bfbd
00000300: 5d77 ac3d 43f0 82be 4b1a f0bd 6e80 953e
00000310: 332b 373e 254b ce3c 904c d53e e2b2 43bd
00000320: 509c d63d 650f 8dbd fb0b 873e b85a 8a3d
00000330: 6c9d c83c 6ed7 23be bc2c 0e3e c402 c53c
00000340: 31bf a6bc 94c3 03be bfa1 b33d 3527 d8bd
00000350: c6a8 cc3d a104 f7bd 98f5 b1bb e164 b03e
00000360: 2cfa 63bc 53b6 52bb bef0 a7bd 2b2d 313d
00000370: ab46 85bd e805 263c 4ff7 49be f09f 53bd
00000380: 7840 f9bd 3683 eabd 329e 3a3d 44f3 813d
00000390: 4c77 63bd edf7 283d eb65 f2bc d2e6 933d
000003a0: 86b1 833c dd71 fbbc 5a03 ad3c 7968 f9bd
000003b0: 1f85 903d 5894 e43d 05f5 dc3d 0498 98bd
000003c0: e7d1 5cbd 55ab 51bd d9a1 8a3c 7595 c0bd
000003d0: 0a28 c3bd 3b8f 3abd 431b e43d 245d 113d
000003e0: c5f9 dcbd 1e68 63bd def2 bdbd e9c5 6dbc
000003f0: d012 083b 6273 b3bd 2cd0 bbbd 5869 b3bc

classifier.0.bias f4 [32]
0.04054914 -0.02166894 -0.05916954 0.12380182 -0.033909686 0.00049858267 -0.084686086 0.020330533
0.017323881 0.09834548 -0.039604243 0.098232806 0.006063044 0.097077526 0.010074816 -0.02155222
0.06796237 -0.0765334 0.09058485 -0.08344367 -0.076672524 0.12193504 -0.03759121 -0.0862162
-0.06317996 0.1360808 0.010706637 -0.10350723 -0.038125087 -0.032951444 -0.060797073 -0.049745236
00000000: db16 263d 1083 b1bc c25b 72bd cf8b fd3d
00000010: e2e4 0abd 51b3 023a e66f adbd 388c a63c
00000020: d0ea 8d3c 5b69 c93d 0f38 22bd 482e c93d
00000030: 80ac c63b 95d0 c63d d710 253c 488e b0bc
00000040: db2f 8b3d 8bbd 9cbd 8d84 b93d 84e4 aabd
00000050: 7c06 9dbd 14b9 f93d 3ef9 19bd 1e92 b0bd
00000060: 7f64 81bd c458 0b3e e46a 2f3c 99fb d3bd
00000070: 0d29 1cbd 18f8 06bd 5a06 79bd a9c1 4bbd

classifier.3.weight f4 [32, 32]
0.25348786 0.07130693 0.2490113 -0.04264035 -0.04975209 -0.1265596 -0.11864426 -0.12771706
-0.15241723 0.011741226 0.22297505 0.29855222 -0.0044893175 0.12239962 -0.10324391 0.06964992
0.12064156 -0.08082427 -0.121784545 -0.21737097 -0.015439178 0.031769037 -0.05819058 0.000670803
0.1675993 0.0009837577 0.10738643 -0.19835973 0.10591204 -0.16985783 -0.19139497 -0.22123072
-0.12314881 -0.16729759 -0.034516767 0.3280913 0.075762555 0.21503033 0.039581493 -0.06830122
-0.06884637 -0.052512594 -0.18009333 0.08731105 -0.05254806 -0.10840849 0.23613398 4.529953e-06
0.054226987 -0.10964774 0.3855364 0.22070527 0.038628627 0.08669923 0.066026084 -0.20077461
-0.12802781 0.15861805 0.19127025 0.13529596 0.11063432 0.07459223 0.3781133 0.108903214
0.15641558 0.027739018 0.14470567 -0.012193816 -0.11696244 -0.03479178 -0.0800057 0.16730459
0.14636318 -0.07929306 0.22741126 0.096874826 0.09327985 0.077885106 -0.20952496 0.07458247
0.21766874 0.14805128 -0.045697995 -0.16511536 0.17571355 0.12621474 0.09372111 0.19051269
0.21145763 0.076969065 -0.2084543 -0.16871847 0.14990926 0.056893863 -0.035476416 -0.20803142
0.09535448 0.07333128 -0.18088567 0.19144608 0.16050367 -0.017505782 0.0134344995 0.050505176
-0.06362638 0.11635901 0.08981338 0.088771954 -0.15822297 -0.051329017 0.32656068 0.15058719
-0.10469441 0.12526862 0.31341925 0.19919665 0.08061456 0.03917052 0.054374717 -0.12648265
-0.09190983 -0.15874925 0.198438 0.19539554 0.053712342 0.108475156 0.18745056 0.21129721
0.00957204 -0.122658014 0.06955206 0.24475604 0.0016101312 0.18395399 -0.14942811 0.103677675
0.04301539 -0.0061879344 -0.09334352 0.10121686 0.038086355 -0.10625514 0.2964105 0.031266674
-0.102357835 0.12753797 0.3418097 0.20447841 -0.053468306 -0.1076089 -0.0059121316 0.00039828412
0.08237774 -0.0918119 0.2989904 0.14451385 -0.01623031 0.078572504 0.022763612 -0.0593469
0.25457293 -0.028956935 0.15153953 -0.18262562 -0.00067513913 -0.1328425 0.01591003 -0.16874087
0.017143771 -0.17026496 0.023606852 0.16459116 -0.018829376 0.10283237 -0.02890911 0.012765244
0.19023202 0.05839321 -0.10687547 -0.24828617 0.056573804 0.25286502 0.0122572705 0.20311828
0.26003662 0.0069476534 -0.15108491 -0.09032018 -0.053286627 0.06517854 -0.3118546 -0.08184792
0.28753388 -0.09826702 0.27399582 -0.25536725 0.057615444 -0.17858295 0.05593042 0.038671166
0.03886524 -0.05584519 0.058551513 -0.03412345 0.029325336 0.29669484 -0.2770348 -0.068005264
0.15648675 0.07271727 -0.05164898 -0.018600872 0.120435536 0.05880337 -0.23530507 -0.06640227
-0.07282392 0.17637606 -0.00023689776 0.04650686 0.14080933 -0.11204537 -0.010218425 -0.008864715
-0.09734173 -0.033176377 -0.18603127 0.32123753 0.031761553 0.2603163 -0.021406531 0.1403728
0.08274372 -0.0059291655 -0.0125290835 0.090703085 -0.023248643 0.092431 0.22149247 -0.06925235
-0.08346235 -0.07055473 0.3199435 0.35427678 -0.10820288 -0.15226589 0.25049576 -0.0757245
-0.10301607 0.10081814 0.3103298 0.32498997 0.036600556 0.051093142 0.18047142 -0.022864627
00000000: 29c9 813e 5e09 923d d1fc 7e3e a6a7 2ebd
00000010: d9c8 4bbd d798 01be c3fb f2bd 43c8 02be
00000020: 4313 1cbe 455e 403c 9253 643e d6db 983e
00000030: 201b 93bb a7ac fa3d 8b71 d3bd 9ea4 8e3d
00000040: ec12 f73d 3287 a5bd 2d6a f9bd 7f96 5ebe
00000050: 9bf4 7cbc 4020 023d 3f59 6ebd d4d8 2f3a
00000060: 279f 2b3e 6ef1 803a 6bed db3d d01e 4bbe
00000070: 69e8 d83d 36ef 2dbe 0bfd 43be 4e8a 62be
00000080: 7135 fcbd 0f50 2bbe 7461 0dbd 95fb a73e
00000090: 6629 9b3d e930 5c3e 3420 223d 83e1 8bbd
000000a0: 53ff 8cbd 7217 57bd 636a 38be 23d0 b23d
000000b0: a23c 57bd 4505 debd 1bcd 713e 0000 9836
000000c0: 1e1d 5e3d ff8e e0bd 0765 c53e 9000 623e
000000d0: 0d39 1e3d 5e8f b13d af38 873d dc97 4dbe
000000e0: b919 03be c56c 223e 59dc 433e 068b 0a3e
000000f0: 3f94 e23d d0c3 983d 1198 c13e a608 df3d
00000100: 682b 203e f03c e33c b92d 143e 92c8 47bc
00000110: 018a efbd d381 0ebd 07da a3bd e551 2b3e
00000120: 3be0 153e 6664 a2bd 7fde 683e 4f66 c63d
00000130: 8209 bf3d 3a82 9f3d b68d 56be b2be 983d
00000140: 8ee4 5e3e c19a 173e d22d 3bbd 0014 29be
00000150: 41ee 333e 703e 013e daf0 bf3d c215 433e
00000160: 5988 583e f5a1 9d3d 0b75 55be 89c4 2cbe
00000170: d081 193e 8a09 693d b84f 11bd 3006 55be
00000180: 3649 c33d b62e 963d 183a 39be 710a 443e
00000190: 135b 243e 4968 8fbc 601c 5c3c 84de 4e3d
000001a0: 8c4e 82bd a24d ee3d 14f0 b73d 12ce b53d
000001b0: 3405 22be 603e 52bd f632 a73e 8733 1a3e
000001c0: 066a d6bd 6b46 003e 7d78 a03e 35fa 4b3e
000001d0: 3f19 a53d 4471 203d 06b8 5e3d ab84 01be
000001e0: 393b bcbd 2a8f 22be 5533 4b3e c515 483e
000001f0: 7901 5c3d 3928 de3d 0af3 3f3e 4c5e 583e
00000200: 0cd4 1c3c 2034 fbbd 4f71 8e3d 54a1 7a3e
00000210: 0a0b d33a 6f5e 3c3e af03 19be f654 d43d
00000220: e830 303d 28c4 cabb e32a bfbd c94a cf3d
00000230: 7000 1c3d 4b9c d9bd 1ec3 973e 7c11 003d
00000240: fca0 d1bd 5099 023e ae01 af3e ca62 513e
00000250: 9501 5bbd 0e62 dcbd 8eba c1bb cad0 d039
00000260: a9b5 a83d e107 bcbd 4515 993e 70fb 133e
00000270: 6df5 84bc 9fea a03d c17a ba3c bc15 73bd
00000280: 6257 823e 1837 edbc 2e2d 1b3e 3602 3bbe
00000290: d2fb 30ba dd07 08be c055 823c 68ca 2cbe
000002a0: 1871 8c3c f059 2ebe 2863 c13c 968a 283e
000002b0: 1040 9abc c799 d23d ccd2 ecbc 5025 513c
000002c0: 2fcc 423e b82d 6f3d 87e1 dabd bb3e 7ebe
000002d0: efb9 673d 8677 813e b8d2 483c 3dfe 4f3e
000002e0: 8523 853e 24a9 e33b 01b6 1abe c9f9 b8bd
000002f0: 1443 5abd 547c 853d 68ab 9fbe e29f a7bd
00000300: a437 933e 3840 c9bd 2e49 8c3e 7fbf 82be
00000310: 2cfe 6b3d 73de 36be 4c17 653d a865 1e3d
00000320: 2831 1f3d edbd 64bd b6d3 6f3d 08c5 0bbd
00000330: b03b f03c 63e8 973e 81d7 8dbe 5846 8bbd
00000340: 103e 203e cbec 943d e18d 53bd db60 98bc
00000350: e8a6 f63d cddb 703d d0f3 70be eafd 87bd
00000360: b524 95bd ed9b 343e c267 78b9 fa7d 3e3d
00000370: 5230 103e 0b78 e5bd 2e6b 27bc 4f3d 11bc
00000380: 1a5b c7bd f4e3 07bd fb7e 3ebe 3f79 a43e
00000390: 6718 023d 2e48 853e c05c afbc e3bd 0f3e
000003a0: 8a75 a93d 7249 c2bb c946 4dbc 8ac2 b93d
000003b0: f073 bebc 774c bd3d ecce 623e 2dd4 8dbd
000003c0: 4fee aabd 007f 90bd a2cf a33e c463 b53e
000003d0: 7999 ddbd 97eb 1bbe fb40 803e 7215 9bbd
000003e0: 17fa d2bd be79 ce3d 8ce3 9e3e 1665 a63e
000003f0: 77ea 153d 0b47 513d 80cd 383e 994e bbbc

classifier.3.bias f4 [32]
0.015223774 0.04687071 -0.047261674 0.113943845 0.083847694 0.03357418 0.13252074 0.064889915
0.08428385 0.21629296 -0.08789658 -0.1860121 0.17244332 -0.12537318 0.09124961 0.03834766
0.095084265 0.014394972 0.028571324 -0.09544018 0.21502797 -0.10162716 0.101526126 0.2506555
-0.11127856 -0.06647243 0.10090826 -0.117605895 -0.07551296 0.22424191 -0.18077826 -0.0037045025
00000000: 236d 793c 80fb 3f3d 7595 41bd 645b e93d
00000010: 57b8 ab3d 1485 093d 84b3 073e 01e5 843d
00000020: 039d ac3d e77b 5d3e 1f03 b4bd f579 3ebe
00000030: fb94 303e d461 00be 13e1 ba3d 7012 1d3d
00000040: 8abb c23d e3d8 6b3c 690e ea3c 2476 c3bd
00000050: 4b30 5c3e e721 d0bd eeec cf3d eb55 803e
00000060: 03e6 e3bd b322 88bd fda8 ce3d 5cdb f0bd
00000070: 8aa6 9abd ac9f 653e f01d 39be 3dc7 72bb

classifier.5.weight f4 [1, 32]
-0.3437391 0.23672512 -0.16564259 0.20921074 0.18871327 -0.16538046 -0.18800728 0.39928547
-0.17282557 0.2610485 -0.1209764 -0.15953487 -0.2550744 -0.055540044 0.15003595 -0.23243117
-0.011031504 0.22393358 -0.21700662 0.11706627 -0.15677719 0.2001411 0.17621647 -0.18720971
0.14507413 0.14888564 -0.18955503 -0.018469667 -0.28879637 0.40104604 -0.0572293 -0.33431882
00000000: 92fe afbe 1268 723e 369e 29be 573b 563e
00000010: 0d3e 413e 7f59 29be fb84 40be 256f cc3e
00000020: 30f9 30be 26a8 853e 7ac2 f7bd 1c5d 23be
00000030: 1d99 82be f57d 63bd 06a3 193e 7002 6ebe
00000040: 7bbd 34bc d84e 653e fc36 5ebe 71c0 ef3d
00000050: 338a 20be caf1 4c3e 1772 343e e7b3 3fbe
00000060: 508e 143e 7a75 183e b71a 42be b34d 97bc
00000070: 1edd 93be e855 cd3e 4569 6abd d62b abbe
